network_architecture: Net(
  (vtx_encode_1): Sequential(
    (0): Linear(in_features=5, out_features=19, bias=True)
    (1): SiLU()
    (2): Dropout(p=0, inplace=True)
    (3): Linear(in_features=19, out_features=39, bias=True)
    (4): SiLU()
    (5): Dropout(p=0, inplace=True)
    (6): Linear(in_features=39, out_features=79, bias=True)
    (7): SiLU()
    (8): Dropout(p=0, inplace=True)
    (9): Linear(in_features=79, out_features=79, bias=True)
  )
  (neutral_pfc_encode): Sequential(
    (0): Linear(in_features=11, out_features=39, bias=True)
    (1): SiLU()
    (2): Linear(in_features=39, out_features=79, bias=True)
    (3): Dropout(p=0, inplace=True)
    (4): SiLU()
    (5): Linear(in_features=79, out_features=79, bias=True)
  )
  (charged_pfc_encode): Sequential(
    (0): Linear(in_features=12, out_features=39, bias=True)
    (1): SiLU()
    (2): Linear(in_features=39, out_features=79, bias=True)
    (3): Dropout(p=0, inplace=True)
    (4): SiLU()
    (5): Linear(in_features=79, out_features=79, bias=True)
  )
  (conv): DynamicEdgeConv(nn=Sequential(
    (0): Linear(in_features=158, out_features=79, bias=True)
    (1): SiLU()
    (2): Linear(in_features=79, out_features=79, bias=True)
  ), k=31)
  (conv2): DynamicEdgeConv(nn=Sequential(
    (0): Linear(in_features=158, out_features=79, bias=True)
    (1): SiLU()
    (2): Linear(in_features=79, out_features=79, bias=True)
  ), k=63)
  (vtx_encode_2): Sequential(
    (0): Linear(in_features=79, out_features=158, bias=True)
    (1): SiLU()
    (2): Linear(in_features=158, out_features=316, bias=True)
    (3): Dropout(p=0, inplace=True)
    (4): SiLU()
    (5): Linear(in_features=316, out_features=79, bias=True)
  )
  (pfc_encode_2): Sequential(
    (0): Linear(in_features=79, out_features=158, bias=True)
    (1): SiLU()
    (2): Linear(in_features=158, out_features=316, bias=True)
    (3): SiLU()
    (4): Dropout(p=0, inplace=True)
    (5): Linear(in_features=316, out_features=79, bias=True)
  )
)
